…
[1;32m   1930[0m         [38;5;28;01mreturn[39;00m modules[name]
[0;32m-> 1931[0m [38;5;28;01mraise[39;00m [38;5;167;01mAttributeError[39;00m(
[1;32m   1932[0m     [38;5;124mf[39m[38;5;124m"[39m[38;5;124m'[39m[38;5;132;01m{[39;00m[38;5;28mtype[39m([38;5;28mself[39m)[38;5;241m.[39m[38;5;18m__name__[39m[38;5;132;01m}[39;00m[38;5;124m'[39m[38;5;124m object has no attribute [39m[38;5;124m'[39m[38;5;132;01m{[39;00mname[38;5;132;01m}[39;00m[38;5;124m'[39m[38;5;124m"[39m
[1;32m   1933[0m )

[0;31mAttributeError[0m: 'LitCNN' object has no attribute 'CNN'


LitCNN(
  (model): Wang2024(
    (conv1): Conv2d(1, 12, kernel_size=(3, 3), stride=(1, 1), padding=(1, 1))
    (pool1): MaxPool2d(kernel_size=2, stride=2, padding=0, dilation=1, ceil_mode=False)
    (conv2): Conv2d(12, 48, kernel_size=(3, 3), stride=(1, 1), padding=(1, 1))
    (pool2): MaxPool2d(kernel_size=2, stride=2, padding=0, dilation=1, ceil_mode=False)
    (fc1): Linear(in_features=24576, out_features=96, bias=True)
    (fc2): Linear(in_features=96, out_features=48, bias=True)
    (fc3): Linear(in_features=48, out_features=10, bias=True)
  )
)


Wang2024(
  (conv1): Conv2d(1, 12, kernel_size=(3, 3), stride=(1, 1), padding=(1, 1))
  (pool1): MaxPool2d(kernel_size=2, stride=2, padding=0, dilation=1, ceil_mode=False)
  (conv2): Conv2d(12, 48, kernel_size=(3, 3), stride=(1, 1), padding=(1, 1))
  (pool2): MaxPool2d(kernel_size=2, stride=2, padding=0, dilation=1, ceil_mode=False)
  (fc1): Linear(in_features=24576, out_features=96, bias=True)
  (fc2): Linear(in_features=96, out_features=48, bias=True)
  (fc3): Linear(in_features=48, out_features=10, bias=True)
)


LitCNN(
  (model): Wang2024(
    (conv1): Conv2d(1, 12, kernel_size=(3, 3), stride=(1, 1), padding=(1, 1))
    (pool1): MaxPool2d(kernel_size=2, stride=2, padding=0, dilation=1, ceil_mode=False)
    (conv2): Conv2d(12, 48, kernel_size=(3, 3), stride=(1, 1), padding=(1, 1))
    (pool2): MaxPool2d(kernel_size=2, stride=2, padding=0, dilation=1, ceil_mode=False)
    (fc1): Linear(in_features=24576, out_features=96, bias=True)
    (fc2): Linear(in_features=96, out_features=48, bias=True)
    (fc3): Linear(in_features=48, out_features=10, bias=True)
  )
)

[0;31m---------------------------------------------------------------------------[0m
[0;31mNotImplementedError[0m                       Traceback (most recent call last)
Cell [0;32mIn[11], line 1[0m
[0;32m----> 1[0m [43mmodel[49m[43m([49m[43mX_test[49m[43m[[49m[43m:[49m[38;5;241;43m1[39;49m[43m][49m[38;5;241;43m.[39;49m[43mto[49m[43m([49m[43mdevice[49m[43m)[49m[43m)[49m
…
